…
2019-10-16 23:10:59.168217: I tensorflow/core/platform/cpu_feature_guard.cc:141] Your CPU supports instructions that this TensorFlow binary was not compiled to use: AVX2 FMA
2019-10-16 23:10:59.169493: I tensorflow/core/common_runtime/process_util.cc:69] Creating new thread pool with default inter op setting: 2. Tune using inter_op_parallelism_threads for best performance.
Loading SEWA database ...
 ... done
Shifting labels to the front for 2.8 seconds.
_________________________________________________________________
Layer (type)                 Output Shape              Param #   
=================================================================
input_1 (InputLayer)         (None, 1768, 37)          0         
_________________________________________________________________
conv1d_1 (Conv1D)            (None, 1768, 1)           186       
_________________________________________________________________
activation_1 (Activation)    (None, 1768, 1)           0         
_________________________________________________________________
dropout_1 (Dropout)          (None, 1768, 1)           0         
_________________________________________________________________
conv1d_2 (Conv1D)            (None, 1768, 1)           21        
_________________________________________________________________
activation_2 (Activation)    (None, 1768, 1)           0         
_________________________________________________________________
dropout_2 (Dropout)          (None, 1768, 1)           0         
_________________________________________________________________
conv1d_3 (Conv1D)            (None, 1768, 1)           31        
_________________________________________________________________
activation_3 (Activation)    (None, 1768, 1)           0         
_________________________________________________________________
dropout_3 (Dropout)          (None, 1768, 1)           0         
_________________________________________________________________
conv1d_4 (Conv1D)            (None, 1768, 1)           51        
_________________________________________________________________
activation_4 (Activation)    (None, 1768, 1)           0         
_________________________________________________________________
dropout_4 (Dropout)          (None, 1768, 1)           0         
_________________________________________________________________
time_distributed_1 (TimeDist (None, 1768, 1)           2         
_________________________________________________________________
activation_5 (Activation)    (None, 1768, 1)           0         
=================================================================
Total params: 291
Trainable params: 291
Non-trainable params: 0
_________________________________________________________________
None
Iter: 1
Epoch 1/1

34/34 [==============================] - 1s 17ms/step - loss: 1.0003
CCC train: 0.003,0.004,0.004, CCC devel: 0.002,0.002,0.002, CCC test:  0.004,0.004,0.001, CCC testC: 0.002,0.002,0.001
…
