…
2019-10-16 21:06:47.592527: I tensorflow/core/platform/cpu_feature_guard.cc:141] Your CPU supports instructions that this TensorFlow binary was not compiled to use: AVX2 FMA
2019-10-16 21:06:47.593667: I tensorflow/core/common_runtime/process_util.cc:69] Creating new thread pool with default inter op setting: 2. Tune using inter_op_parallelism_threads for best performance.
Loading SEWA database ...
 ... done
Shifting labels to the front for 2.8 seconds.
_________________________________________________________________
Layer (type)                 Output Shape              Param #   
=================================================================
input_1 (InputLayer)         (None, 1768, 37)          0         
_________________________________________________________________
conv1d_1 (Conv1D)            (None, 1768, 9)           1674      
_________________________________________________________________
activation_1 (Activation)    (None, 1768, 9)           0         
_________________________________________________________________
dropout_1 (Dropout)          (None, 1768, 9)           0         
_________________________________________________________________
conv1d_2 (Conv1D)            (None, 1768, 9)           1629      
_________________________________________________________________
activation_2 (Activation)    (None, 1768, 9)           0         
_________________________________________________________________
dropout_2 (Dropout)          (None, 1768, 9)           0         
_________________________________________________________________
conv1d_3 (Conv1D)            (None, 1768, 9)           2439      
_________________________________________________________________
activation_3 (Activation)    (None, 1768, 9)           0         
_________________________________________________________________
dropout_3 (Dropout)          (None, 1768, 9)           0         
_________________________________________________________________
conv1d_4 (Conv1D)            (None, 1768, 9)           4059      
_________________________________________________________________
activation_4 (Activation)    (None, 1768, 9)           0         
_________________________________________________________________
dropout_4 (Dropout)          (None, 1768, 9)           0         
_________________________________________________________________
time_distributed_1 (TimeDist (None, 1768, 1)           10        
_________________________________________________________________
activation_5 (Activation)    (None, 1768, 1)           0         
=================================================================
Total params: 9,811
Trainable params: 9,811
Non-trainable params: 0
_________________________________________________________________
None
Iter: 1
Epoch 1/1

34/34 [==============================] - 1s 39ms/step - loss: 0.9926
CCC train: 0.121,0.136,0.136, CCC devel: 0.122,0.131,0.145, CCC test:  0.107,0.109,0.135, CCC testC: 0.104,0.110,0.120
…
