…
2019-10-18 21:37:55.606719: I tensorflow/core/platform/cpu_feature_guard.cc:141] Your CPU supports instructions that this TensorFlow binary was not compiled to use: AVX2 FMA
2019-10-18 21:37:55.643763: I tensorflow/core/common_runtime/process_util.cc:69] Creating new thread pool with default inter op setting: 2. Tune using inter_op_parallelism_threads for best performance.
Loading SEWA database ...
 ... done
Shifting labels to the front for 2.8 seconds.
_________________________________________________________________
Layer (type)                 Output Shape              Param #   
=================================================================
input_1 (InputLayer)         (None, 1768, 37)          0         
_________________________________________________________________
conv1d_1 (Conv1D)            (None, 1768, 1)           556       
_________________________________________________________________
activation_1 (Activation)    (None, 1768, 1)           0         
_________________________________________________________________
dropout_1 (Dropout)          (None, 1768, 1)           0         
_________________________________________________________________
conv1d_2 (Conv1D)            (None, 1768, 1)           51        
_________________________________________________________________
activation_2 (Activation)    (None, 1768, 1)           0         
_________________________________________________________________
dropout_2 (Dropout)          (None, 1768, 1)           0         
_________________________________________________________________
time_distributed_1 (TimeDist (None, 1768, 1)           2         
_________________________________________________________________
activation_3 (Activation)    (None, 1768, 1)           0         
=================================================================
Total params: 609
Trainable params: 609
Non-trainable params: 0
_________________________________________________________________
None
Iter: 1
Epoch 1/1

34/34 [==============================] - 1s 38ms/step - loss: 0.9252
CCC train: 0.137,0.159,0.149, CCC devel: 0.165,0.182,0.149, CCC test:  0.070,0.069,0.110, CCC testC: 0.085,0.098,0.083
…
